2024-05-12 20:35:36,372 - ===> loading train, validation and eval dataset
2024-05-12 20:35:37,852 - ### Model summary below###
SCP(
  (encoder): Sequential(
    (0): Conv2d(1, 50, kernel_size=(1, 8), stride=(1, 1), padding=same)
    (1): BatchNorm2d(50, eps=1e-05, momentum=0.1, affine=True, track_running_stats=True)
    (2): ReLU()
    (3): Dropout(p=0.5, inplace=False)
    (4): Conv2d(50, 50, kernel_size=(2, 7), stride=(1, 1), padding=(0, 3))
    (5): BatchNorm2d(50, eps=1e-05, momentum=0.1, affine=True, track_running_stats=True)
    (6): ReLU()
    (7): Dropout(p=0.5, inplace=False)
  )
  (encoder2): Sequential(
    (0): Conv2d(1, 50, kernel_size=(1, 8), stride=(1, 1), padding=same)
    (1): BatchNorm2d(50, eps=1e-05, momentum=0.1, affine=True, track_running_stats=True)
    (2): ReLU()
    (3): Dropout(p=0.5, inplace=False)
    (4): Conv2d(50, 50, kernel_size=(2, 7), stride=(1, 1), padding=(0, 3))
    (5): BatchNorm2d(50, eps=1e-05, momentum=0.1, affine=True, track_running_stats=True)
    (6): ReLU()
    (7): Dropout(p=0.5, inplace=False)
  )
  (gru): GRU(100, 256, batch_first=True)
  (Wk): ModuleList(
    (0): Linear(in_features=256, out_features=100, bias=True)
    (1): Linear(in_features=256, out_features=100, bias=True)
    (2): Linear(in_features=256, out_features=100, bias=True)
    (3): Linear(in_features=256, out_features=100, bias=True)
    (4): Linear(in_features=256, out_features=100, bias=True)
    (5): Linear(in_features=256, out_features=100, bias=True)
    (6): Linear(in_features=256, out_features=100, bias=True)
    (7): Linear(in_features=256, out_features=100, bias=True)
    (8): Linear(in_features=256, out_features=100, bias=True)
    (9): Linear(in_features=256, out_features=100, bias=True)
    (10): Linear(in_features=256, out_features=100, bias=True)
    (11): Linear(in_features=256, out_features=100, bias=True)
    (12): Linear(in_features=256, out_features=100, bias=True)
    (13): Linear(in_features=256, out_features=100, bias=True)
    (14): Linear(in_features=256, out_features=100, bias=True)
    (15): Linear(in_features=256, out_features=100, bias=True)
  )
)

2024-05-12 20:35:37,852 - ===> Model total parameter: 757544

2024-05-12 20:35:39,491 - Train Epoch: 1 [0/176000 (0%)]	lr:0.00025	Accuracy: 0.0078	Loss: 15.782877
2024-05-12 20:35:39,909 - Train Epoch: 1 [1280/176000 (1%)]	lr:0.00275	Accuracy: 0.0000	Loss: 6.372953
2024-05-12 20:35:40,312 - Train Epoch: 1 [2560/176000 (1%)]	lr:0.00525	Accuracy: 0.0156	Loss: 4.774365
…
